models/pytorch_best_auc_model.pth (torch, 36349 bytes, 14 tensors)

network.0.weight f4 [64, 77]
0	0xbdcdbf5f	-0.10046267
1	0x3dbee81f	0.09321617
2	0x3de542de	0.111943945
3	0x3c9a11dd	0.018807346
4	0xbd888025	-0.06665067
5	0x3cf58299	0.0299695
6	0x3b214064	0.002460503
7	0xb8d32080	-0.000100673176
8	0xbce611eb	-0.028084716
9	0x3c8cb65f	0.017176805
10	0xbd225cb9	-0.03963921
11	0xbe0b90d0	-0.1362946
12	0x3e10373c	0.1408357
13	0xbbcb4b71	-0.0062040617
14	0x3d9bf2bc	0.07614657
15	0x3de2ff6e	0.110838756
16	0xbde01dd5	-0.1094319
17	0xbcd3a0e5	-0.025833556
18	0x3d57a1be	0.052644484
19	0xbe22c54c	-0.15895575
20	0xbd0ee425	-0.034885544
21	0x3d8e7d9d	0.069575526
22	0xbc63bb1b	-0.01389959
23	0x3c99f78f	0.018794803
24	0x3bab5b94	0.005229423
25	0xbdf75915	-0.12077538
26	0xbcc28062	-0.023742858
27	0x3d12b151	0.035813633
28	0x3d11f16a	0.03563062
29	0xbdf69034	-0.12039223
30	0x3d1f166f	0.038839754
31	0xbd974259	-0.07385702
32	0x3e086707	0.13320552
33	0xbd6657c2	-0.056236036
34	0x3dc7f1b5	0.09762899
35	0xbdf11f09	-0.117734976
36	0xbdedf704	-0.1161938
37	0x3e16a65e	0.14711902
38	0xbe29241b	-0.1651768
39	0x3da212f2	0.0791377
40	0xbd993273	-0.074803255
41	0x3cc46101	0.023972036
42	0xbda9095b	-0.082537375
43	0xbe07a6b6	-0.13247189
44	0x3da0ecff	0.078577034
45	0x3d759fe7	0.059966948
46	0x3c25f79c	0.010129835
47	0xbbe8110b	-0.00708211
48	0x3d9c00ca	0.07617338
49	0x3bb7e9fc	0.00561261
50	0xbc6b46f5	-0.014360179
51	0x3d89db3c	0.06731269
52	0x3d3c1af8	0.045924157
53	0xbdcb8e8a	-0.099392965
54	0xbe089ff0	-0.13342261
55	0xbd8928e0	-0.066972494
56	0xbd9f676e	-0.077833995
57	0x3d33b60e	0.043874793
58	0x3d1774fc	0.0369768
59	0xbdb7ca65	-0.089741506
60	0xbd1c8f35	-0.03822251
61	0xbcd605ea	-0.026125867
62	0xbc819fe6	-0.015823316
63	0x3d88c6e4	0.066785604
64	0xbc2c441f	-0.010514288
65	0xbc854a6a	-0.016270835
66	0x3dcf4d47	0.10122161
67	0x3d412bcb	0.047160905
68	0xbdfc5bfc	-0.12322232
69	0x3da6114d	0.081087686
70	0xbd992acd	-0.07478867
71	0x3cd97e09	0.026549356
72	0x3d7c34d4	0.06157382
73	0x3ce6c991	0.028172286
74	0xbd868e30	-0.06570089
75	0xbcff6ded	-0.031180346
76	0xbd88c2e5	-0.06677798
77	0x3d8a6f64	0.06759527
78	0xbd5ebab5	-0.054377276
79	0x3d3fa5fa	0.046789147
80	0x3d083e24	0.033262387
81	0x3e2aa6b0	0.16665149
82	0x3d6b9011	0.05751044
83	0xbd1f1701	-0.038840298
84	0x3c1a5df1	0.009421811
85	0xbdf26b9a	-0.118369296
86	0xbde5550b	-0.11197861
87	0x3bd8f75c	0.0066212844
88	0xbd8d4da9	-0.06899578
89	0x3d0b51d6	0.03401359
90	0xbe05530f	-0.13019966
91	0x3d06e15b	0.03292976
92	0xbc4bfebd	-0.012450871
93	0x3d5fa87f	0.05460405
94	0x3d898b36	0.067160055
95	0x3dc61e73	0.096737765
96	0x3d9aab5f	0.07552218
97	0xbdb21461	-0.08695293
98	0xbd3088db	-0.043099266
99	0x3c59b50a	0.013287792
100	0xbca6d788	-0.020366445
101	0x3df10c9d	0.11769984
102	0x3dffe86b	0.12495502
103	0x3db7559c	0.089518756
104	0x3d1b048d	0.037846137
105	0x3d3eba7f	0.046564575
106	0x3c946caa	0.018118221
107	0x3d787a36	0.060663424
108	0x3c8167bb	0.015796533
109	0xbcf0b0aa	-0.029381115
110	0x3daa5d2c	0.083185524
111	0xbe00fd1e	-0.12596557
112	0x3da88533	0.08228531
113	0xbda88d69	-0.08230097
114	0xbdbf6582	-0.09345533
115	0xbd957055	-0.07296816
116	0xbe31fb38	-0.17380989
117	0xbde01afe	-0.10942648
118	0xbd14a67b	-0.03629158
119	0x3d9d4404	0.076789886
120	0x3db0498b	0.08607777
121	0xbd8f11e7	-0.069858365
122	0x3d92be31	0.071651824
123	0x3dc48ab4	0.09596768
124	0xbdc11001	-0.09426881
125	0xbda63402	-0.081153885
126	0x3c49cc83	0.012316826
127	0x3b646cca	0.0034854882
128	0x3d8c9f3f	0.06866311
129	0x3ca95490	0.020670205
130	0x3dba912f	0.09109723
131	0x3d3857db	0.04500566
132	0x3dc253ab	0.09488615
133	0xbd64f2c0	-0.055895567
134	0x3d48ca83	0.049021255
135	0xbd9c9e70	-0.07647407
136	0xbdc9cc20	-0.09853387
137	0xbde46ed6	-0.11153953
138	0xbdaa96c9	-0.08329541
139	0x3db46c92	0.08809771
140	0xbdb82ee6	-0.0899332
141	0x3a8ae283	0.001059607
142	0xbd7ea73c	-0.062171206
143	0x3b419c1a	0.0029542507
144	0x3d90e5c7	0.070750766
145	0x3d8c7b0f	0.06859409
146	0xbd660e6a	-0.05616609
147	0x3e105c4f	0.14097713
148	0x3d035343	0.032061826
149	0xbd88f6c5	-0.066876926
150	0xbd25c3a3	-0.040469777
151	0x3cc6254f	0.024187712
152	0xbd89efb4	-0.06735173
153	0x3dfdfc7d	0.12401674
154	0xbd03baf0	-0.0321607
155	0xbd87e5e4	-0.06635645
156	0xbda44383	-0.08020689
157	0xbccf763b	-0.025324931
158	0x3e330e4e	0.17485926
159	0xbe14cd18	-0.14531362
160	0xbda58475	-0.08081905
161	0x3ca7c4fc	0.020479672
162	0x3d5ed9db	0.054406982
163	0xbd49d35e	-0.04927384
164	0x3e2da7d1	0.16958548
165	0x3d8a0ca6	0.06740694
166	0x3d01e8ca	0.031716146
167	0xbd8029d6	-0.062579796
168	0x3d47f85b	0.048820835
169	0xbd4014d0	-0.04689485
170	0xbe130c62	-0.14360192
171	0xbd67fbf4	-0.056636766
172	0xbd1997bb	-0.037498217
173	0x3d02c3f0	0.03192514
174	0x3d584af1	0.052805845
175	0x3ceccda2	0.028906647
176	0x3dc89e68	0.097958386
177	0xbd9abe3e	-0.07555817
178	0x3d4b460d	0.049627353
179	0x3de9a2b4	0.11407986
180	0xbe25466c	-0.16140145
181	0x3d34d226	0.044145726
182	0xbc7bf70b	-0.015378724
183	0x3cdb0519	0.02673583
184	0xbe054aba	-0.13016787
185	0xbda1aa51	-0.078938134
186	0x3cfb1882	0.030651335
187	0x3c54d863	0.012991044
188	0xbd571f8f	-0.05252033
189	0xbcdae21b	-0.026719144
190	0xbce963ff	-0.028490065
191	0xbc3ad334	-0.011402894
192	0x3d6162c6	0.05502584
193	0x3d86b128	0.065767586
194	0x3cf967de	0.030445036
195	0x3d9bb4d4	0.076028496
196	0xbd555e5b	-0.052091938
197	0x3d31e6f5	0.04343315
198	0xbae20ba4	-0.0017245901
199	0xbe03cc8a	-0.12870994
200	0xbca80fd2	-0.020515356
201	0x3d5c7a8a	0.0538278
202	0xbc840597	-0.016115947
203	0x3d819c0a	0.0632859
204	0xbda0ada5	-0.0784562
205	0x3e104dd5	0.1409219
206	0x3da63236	0.08115046
207	0x3d95ecb4	0.07320538
208	0x3e00311c	0.12518734
209	0xbdfc1aae	-0.12309776
210	0x3d6cfe85	0.057859916
211	0x3d9362b5	0.07196561
212	0xbcc3389e	-0.023830708
213	0xbc8ca82a	-0.01717003
214	0xbd7312f8	-0.059344262
215	0xbddf8f3f	-0.10915994
216	0xbdb64da3	-0.08901527
217	0x3d931aec	0.07182869
218	0x3dc8e60d	0.09809504
219	0x3d649d95	0.055814344
220	0x3ca935b2	0.020655487
221	0xbdf73814	-0.12071243
222	0xbd698333	-0.057009887
223	0xbd42b24d	-0.047533322
224	0x3d6beb1f	0.057597276
225	0xbdd1c7ca	-0.10243185
226	0x3dcef25e	0.101048216
227	0x3ce481e2	0.027893964
228	0xbd5b7346	-0.05357673
229	0x3d71ec23	0.05906309
230	0xbe1100a2	-0.14160398
231	0x3d90cab6	0.07069914
232	0xbd22116c	-0.039567396
233	0xbc12f779	-0.008970135
234	0x3d6ad4dd	0.05733191
235	0x3ddd6366	0.10809974
236	0xbd40661b	-0.046972375
237	0xbdf81010	-0.12112439
238	0xbe2fac04	-0.17155463
239	0xbe04aac6	-0.1295577
240	0x3d460a16	0.048349462
241	0xbe11d329	-0.14240707
242	0x3d82e376	0.06391041
243	0x3dff50dc	0.124665946
244	0xbce74428	-0.028230742
245	0x3d4afd3e	0.049557917
246	0xbc2b7d90	-0.010466948
247	0xbde0225c	-0.109440535
248	0x3d93ab01	0.07210351
249	0x3de07e60	0.10961604
250	0x3d5fecf7	0.054669347
251	0xbd00873d	-0.031378973
252	0x3da99e46	0.082821414
253	0x3dcaf5ef	0.09910189
254	0x3c64b1c9	0.013958403
255	0x3cf02fb6	0.029319625

network.0.bias f4 [64]
0	0xbd910604	-0.070812255
1	0xbdca2048	-0.098694384
2	0x3e06964d	0.13143273
3	0xbd701e62	-0.058622725
4	0xbbf1bdba	-0.0073773535
5	0xbda60360	-0.081061125
6	0xbd273c9d	-0.04082929
7	0xbe6b9d84	-0.23009306
8	0xbd640e15	-0.055677492
9	0xbe5acf1d	-0.2136807
10	0x3d919f43	0.07110455
11	0xbd9f339b	-0.07773515
12	0xbd194484	-0.037418857
13	0xbde772e5	-0.11301211
14	0x3d95ba54	0.0731093
15	0xbe0e8f7a	-0.1392192
16	0xbd5f0152	-0.05444462
17	0xbd4ccee5	-0.050001998
18	0x3c27a87b	0.01023304
19	0xbd7d0308	-0.06177047
20	0x3dc0eff0	0.094207644
21	0xbd88aeee	-0.0667399
22	0x3d03e22a	0.03219811
23	0xbd01f3c6	-0.03172662
24	0xbd469adc	-0.04848753
25	0xbe32eea8	-0.17473853
26	0xbd4cbf15	-0.049986918
27	0xbe4986f0	-0.19680381
28	0xbd6d60b4	-0.05795355
29	0xbd8540ae	-0.06506477
30	0x3c059413	0.008152979
31	0xbe1e6633	-0.15468673
32	0xbd12baa7	-0.035822537
33	0x3dd5130d	0.10404024
34	0xbd1d421c	-0.038393125
35	0xbdd22d7d	-0.102625825
36	0xbdad7f62	-0.08471562
37	0xbde47c81	-0.1115656
38	0xbddc9a8f	-0.10771667
39	0xbca3d339	-0.01999818
40	0x3de1ae15	0.11019532
41	0x3daa8823	0.08326747
42	0xbe51342b	-0.20430057
43	0xbdb39075	-0.08767787
44	0x3bc77805	0.0060873055
45	0x3d9df767	0.07713204
46	0x3cb764e2	0.022386972
47	0x3dea948c	0.11454114
48	0xbd746142	-0.059663065
49	0xbe114882	-0.14187816
50	0x3d881f6a	0.06646617
51	0xbd599704	-0.053122535
52	0xbe004ec2	-0.12530044
53	0x3d95f059	0.07321233
54	0xbd6d4414	-0.057926252
55	0xbd3d3126	-0.04618945
56	0xbe348bf6	-0.17631516
57	0xbd8d1fc3	-0.06890824
58	0x3d26c217	0.040712442
59	0xbd593c54	-0.05303605
60	0x3d8fb6f9	0.07017321
61	0xbc8ee3c0	-0.017442584
62	0xbdf68db4	-0.120387465
63	0x3c4ea2cd	0.012612057

network.2.weight f4 [64]
0	0x3f84bb95	1.0369745
1	0x3f6f7337	0.9353518
2	0x3f81a6cd	1.0129029
3	0x3f6db58c	0.92855144
4	0x3f6d2aca	0.92643416
5	0x3f8a40b7	1.0800999
6	0x3f6706be	0.9024466
7	0x3f779472	0.96710885
8	0x3f818b5f	1.0120658
9	0x3f730436	0.949283
10	0x3f77664a	0.96640456
11	0x3f802091	1.0009938
12	0x3f82c6a1	1.0216867
13	0x3f6f5abc	0.93497825
14	0x3f7a1ce0	0.9770031
15	0x3f8bca4c	1.0921111
16	0x3f85e1da	1.045955
17	0x3f7d4158	0.9892783
18	0x3f8ce00d	1.1005875
19	0x3f8d5dd2	1.1044257
20	0x3f6c5311	0.9231425
21	0x3f81f316	1.0152309
22	0x3f8253b3	1.0181793
23	0x3f831c05	1.0242926
24	0x3f83e39f	1.030384
25	0x3f807a8c	1.0037398
26	0x3f7f4073	0.99707717
27	0x3f7589eb	0.9591357
28	0x3f89b542	1.075844
29	0x3f6d4189	0.92678124
30	0x3f6ae580	0.9175644
31	0x3f7c4eda	0.9855782
32	0x3f7734ce	0.9656495
33	0x3f721cf1	0.9457541
34	0x3f843b38	1.0330572
35	0x3f77a259	0.967321
36	0x3f7c094e	0.984517
37	0x3f7ccfd4	0.9875462
38	0x3f64fbc8	0.8944669
39	0x3f86317e	1.0483854
40	0x3f7abf09	0.97947747
41	0x3f859019	1.04346
42	0x3f84360c	1.0328994
43	0x3f6f078f	0.9337091
44	0x3f6e7a36	0.9315523
45	0x3f874e9e	1.0570867
46	0x3f808f03	1.0043644
47	0x3f7a27ee	0.9771718
48	0x3f78051a	0.96882784
49	0x3f8c283f	1.0949782
50	0x3f727048	0.9470258
51	0x3f82ced9	1.0219375
52	0x3f80793d	1.0036999
53	0x3f7f96f6	0.99839723
54	0x3f8010be	1.0005109
55	0x3f7f9c18	0.99847555
56	0x3f83bfeb	1.0292944
57	0x3f83eee2	1.0307276
58	0x3f7d25f9	0.98886067
59	0x3f8c33a4	1.095326
60	0x3f85b260	1.0445061
61	0x3f81abe8	1.0130587
62	0x3f7fb0b8	0.99879026
63	0x3f80b32f	1.0054682

network.2.bias f4 [64]
0	0xbc7df167	-0.015499449
1	0xbc9727ce	-0.018451598
2	0x3d5c9bc7	0.0538595
3	0xbafa597e	-0.0019100157
4	0xbd06dc92	-0.032925196
5	0xbc0bbe5f	-0.008529275
6	0xba9af57c	-0.0011822428
7	0xbd342cd2	-0.043988056
8	0xbdc8a56c	-0.09797177
9	0x3c7110f4	0.014713515
10	0x3d5855cc	0.052816197
11	0xbcecd073	-0.02890799
12	0x3d10ab9d	0.035319913
13	0xb935df99	-0.00017344802
14	0x3c2acfd7	0.010425529
15	0xbb701746	-0.0036634966
16	0x3d2832ae	0.041063957
17	0x3c3f09d6	0.01166006
18	0xbd6b276e	-0.05741065
19	0x3da648b2	0.08119334
20	0xba570f0c	-0.0008203841
21	0xbc059d77	-0.008155218
22	0xbd2b4490	-0.041813433
23	0x3d14c6b3	0.036322307
24	0x3db09f95	0.08624188
25	0xbc2f4d90	-0.010699645
26	0x3b50eede	0.0031880657
27	0xbcebde4f	-0.028792528
28	0x3d869da2	0.06573035
29	0x3d233214	0.03984268
30	0x3c5a520c	0.013325226
31	0xbdadf5ab	-0.08494123
32	0x3c4f76dc	0.012662616
33	0xbdbd393d	-0.09239433
34	0x3cf94d04	0.030432232
35	0x3ca7f60e	0.02050307
36	0xbd154d5f	-0.03645074
37	0xbbe6fae5	-0.007048952
38	0xbc153e78	-0.009109132
39	0x3cac6a8e	0.021046903
40	0xbd726a8f	-0.059183653
41	0x3c772ed8	0.015086852
42	0xbd602005	-0.054718036
43	0xbdb64012	-0.08898939
44	0xbd0d0b84	-0.03443481
45	0x3d8a94f3	0.06766691
46	0x3d0845d6	0.033269726
47	0x3c3acfd5	0.01140209
48	0x3d3c8fdf	0.046035644
49	0x3d18b667	0.037283327
50	0xbbbe4b0b	-0.0058072857
51	0xbd341b7c	-0.043971524
52	0x3d810428	0.06299621
53	0x3d8687f3	0.06568899
54	0xbd45100b	-0.048111003
55	0x3d90e074	0.07074061
56	0xbd56b07a	-0.052414395
57	0x3cc5dc38	0.02415286
58	0xbd9e891e	-0.07740997
59	0x3dafc778	0.085829675
60	0xbbea5cb1	-0.007152163
61	0xbb813a7b	-0.003943739
62	0xbd47e8c4	-0.048805967
63	0xbc3b9b83	-0.011450651

network.2.running_mean f4 [64]
0	0x3e2fb350	0.17158246
1	0x3e39d410	0.18147302
2	0x3ea832d2	0.32851273
3	0x3e51ad39	0.20476235
4	0x3e30ed51	0.17278029
5	0x3e8855b7	0.26627895
6	0x3e4af2eb	0.19819228
7	0x3e07cee7	0.1326252
8	0x3e4ba042	0.19885352
9	0x3df5391a	0.11973782
10	0x3e813a5b	0.25239834
11	0x3e391e32	0.18077925
12	0x3e69cbb8	0.22831619
13	0x3e50f3e4	0.20405537
14	0x3e962f95	0.29333177
15	0x3e201381	0.1563244
16	0x3e48aae4	0.1959644
17	0x3e713c9a	0.23558274
18	0x3e62ff6c	0.22167748
19	0x3e61718e	0.22015974
20	0x3e9f89e1	0.3115988
21	0x3e24b0a0	0.16083002
22	0x3e85929c	0.26088417
23	0x3e65a5c7	0.2242652
24	0x3e5e5443	0.21711831
25	0x3e28f746	0.16500577
26	0x3e48e1d1	0.19617392
27	0x3e3e673e	0.18594071
28	0x3e4ef937	0.20212255
29	0x3e57d5ba	0.21077624
30	0x3e49394d	0.19650765
31	0x3e055d93	0.13023977
32	0x3e8d200d	0.27563515
33	0x3eaef168	0.34168553
34	0x3e3de5cb	0.1854469
35	0x3e2347ae	0.15945312
36	0x3e808bb3	0.25106582
37	0x3e5bf37a	0.21479598
38	0x3e33ac4c	0.17546195
39	0x3e784389	0.24244513
40	0x3eaa6408	0.33279443
41	0x3ea30fd4	0.31848013
42	0x3dfab0d5	0.12240759
43	0x3e3b9e05	0.18321998
44	0x3ea7b928	0.3275845
45	0x3e9a94bc	0.301916
46	0x3e81447e	0.25247568
47	0x3e9f6fa1	0.31139854
48	0x3e877643	0.26457414
49	0x3e17506e	0.14776775
50	0x3e590155	0.21191914
51	0x3e67ee65	0.22649534
52	0x3e4cd2c2	0.20002273
53	0x3e921fc8	0.28539872
54	0x3e4a3057	0.19745003
55	0x3e566d99	0.20940246
56	0x3e274d8c	0.16338176
57	0x3e507932	0.20358732
58	0x3e6f0b30	0.23344111
59	0x3e4310af	0.19049333
60	0x3e7b00e9	0.24512066
61	0x3e67598d	0.22592755
62	0x3e479f67	0.19494401
63	0x3e73c76c	0.23806542

network.2.running_var f4 [64]
0	0x3da643f9	0.081184335
1	0x3e17280a	0.14761367
2	0x3e5d0a20	0.21585894
3	0x3e2f13a7	0.1709734
4	0x3ddf2e8b	0.10897549
5	0x3e311f83	0.17297177
6	0x3e4816bd	0.19539924
7	0x3e2090d6	0.1568025
8	0x3e06edb5	0.13176616
9	0x3e0fd18d	0.14044781
10	0x3e09da65	0.13462217
11	0x3e174c13	0.14775114
12	0x3e14c8bc	0.14529699
13	0x3e74259b	0.2384247
14	0x3e087af9	0.1332816
15	0x3dc2751b	0.09494992
16	0x3e0ae452	0.1356366
17	0x3e01e69a	0.12685624
18	0x3e1a608c	0.15075892
19	0x3df3e40c	0.11908731
20	0x3e853448	0.2601645
21	0x3dcdeca2	0.100549
22	0x3de8f167	0.11374169
23	0x3e25f921	0.16208316
24	0x3e0490ce	0.12945864
25	0x3dad2d51	0.08455909
26	0x3e0de122	0.13855413
27	0x3e6210db	0.22076742
28	0x3df9672e	0.12177883
29	0x3e1f1c7d	0.15538211
30	0x3e243470	0.16035628
31	0x3e029217	0.12751041
32	0x3e70e975	0.23526557
33	0x3e91ec59	0.2850063
34	0x3daf2704	0.085523635
35	0x3e135dd2	0.14391258
36	0x3ebee73a	0.37285787
37	0x3e5c7a0d	0.21530934
38	0x3e30105a	0.17193738
39	0x3ddbfa4d	0.107411005
40	0x3e2d9d82	0.16954616
41	0x3e0f0c4b	0.13969533
42	0x3dc4e389	0.096137114
43	0x3e2083cd	0.15675278
44	0x3f010dcd	0.50411683
45	0x3e2fd2e3	0.1717029
46	0x3e263c05	0.16233833
47	0x3dfdf613	0.124004506
48	0x3e019537	0.12654577
49	0x3e0979dc	0.13425392
50	0x3e1ad563	0.15120463
51	0x3deb61bf	0.11493253
52	0x3dda8de2	0.10671593
53	0x3e44fa96	0.19236216
54	0x3e058731	0.13039853
55	0x3ddfd3f6	0.109291
56	0x3e200a24	0.15628868
57	0x3e0c4cca	0.13701168
58	0x3e3f161b	0.18660776
59	0x3dc3c1fe	0.095584854
60	0x3e318eb3	0.17339592
61	0x3e428abc	0.18998235
62	0x3dfdeae8	0.123983204
63	0x3e0aec5d	0.13566728

network.4.weight f4 [32, 64]
0	0x3da6f7f2	0.081527606
1	0x3deb3c62	0.114861265
2	0x3d9165a8	0.070994675
3	0xbd8d26ce	-0.06892167
4	0x3c89fb2b	0.016843399
5	0xbe7d5c71	-0.24742295
6	0x3cc150d0	0.023598105
7	0xbd2f5b26	-0.042811535
8	0xbd3f5b81	-0.046718124
9	0xbe04ef68	-0.12981951
10	0xbd9290a8	-0.07156497
11	0xbdd875ae	-0.105693206
12	0xbdba7ea7	-0.09106188
13	0x3d09779e	0.03356134
14	0x3d608f77	0.05482432
15	0x3d445855	0.047935802
16	0x3df93832	0.121689215
17	0x3e02ae1a	0.12761727
18	0xbdea6783	-0.114455245
19	0xbc93efb5	-0.018058637
20	0xbd797fcc	-0.060912892
21	0x3e00681c	0.12539715
22	0x3d9562a8	0.07294208
23	0x3de21ec9	0.11041028
24	0x3dc6e174	0.097109705
25	0x3ccbc3d2	0.024873648
26	0x3d475ecc	0.04867439
27	0xbd27c18a	-0.040956058
28	0x3dbaaa9e	0.09114574
29	0x3d657e87	0.05602887
30	0x3db9c4f8	0.09070772
31	0xbc95b912	-0.018276725
32	0x3de9290a	0.11384781
33	0xbd14e470	-0.036350667
34	0x3d34b506	0.04411795
35	0x3de31125	0.110872544
36	0x3dc54dee	0.096340045
37	0x3dce75b0	0.10081041
38	0xbd9aaeca	-0.075528696
39	0x3cdfef5c	0.027335815
40	0xbdb4cae9	-0.088277645
41	0xbda0e5fa	-0.078563645
42	0xbdd4f339	-0.103979535
43	0xbd1d07f1	-0.03833765
44	0x3d45a8b4	0.04825659
45	0xbd2df413	-0.042469095
46	0x3ccbb85d	0.024868185
47	0x3d6b2256	0.057405792
48	0xbdb8fb36	-0.0903229
49	0xbd42258a	-0.04739908
50	0x3e27d5b4	0.16390115
51	0x3cd58314	0.02606348
52	0xbc1fe330	-0.009758756
53	0xbdc2bc86	-0.09508614
54	0x3db52ccb	0.08846434
55	0x3e178229	0.14795746
56	0xb9795511	-0.0002377818
57	0x3bacb6aa	0.0052707987
58	0xbcef8271	-0.029237004
59	0xbe0fcfe7	-0.14044152
60	0x3d905242	0.070469394
61	0x3dfb9f19	0.12286205
62	0x3d2dde7d	0.04244851
63	0x3dcd7177	0.10031407
64	0xbdec4edb	-0.11538478
65	0xbd7189f2	-0.058969446
66	0xbd6947d9	-0.056953285
67	0x3e2b8cb1	0.16752888
68	0x3dbd4e9b	0.092435084
69	0xbdb2fcc2	-0.08739616
70	0xbd3f3fb4	-0.04669161
71	0xbd8cd450	-0.06876433
72	0xbcca185f	-0.024669824
73	0x3c1ef6be	0.009702383
74	0xbd42e2f4	-0.04757972
75	0x3c9dcbd2	0.019262228
76	0xbdb85a92	-0.0900165
77	0xbe040abb	-0.12894718
78	0x3ddd3dd4	0.108028084
79	0xbd82bf6d	-0.06384168
80	0xbd406d34	-0.046979144
81	0xbd67e7b5	-0.056617457
82	0x3dc5c550	0.09656775
83	0xbd44fc26	-0.04809203
84	0xbd048435	-0.032352645
85	0x3cc7ac75	0.024374226
86	0x3de24e4f	0.110500924
87	0x3cd5f203	0.026116377
88	0xbd3758c6	-0.044762395
89	0xbc822201	-0.015885355
90	0xbd386888	-0.045021564
91	0x3d2d41f3	0.042299222
92	0x3d5f69fb	0.05454443
93	0x3c1d1ba0	0.009589106
94	0x3b41347d	0.0029480748
95	0xbe02eb65	-0.12785108
96	0xbdc61859	-0.09672613
97	0x3c78c700	0.015184164
98	0xbde04700	-0.10951042
99	0xbd66f6f2	-0.05638785
100	0x3c7a551f	0.0152790835
101	0x3c2bf39b	0.010495092
102	0x3d621bcd	0.055202294
103	0xbc4c4863	-0.01246843
104	0x3d3ee30e	0.046603255
105	0xbd9367c2	-0.071975246
106	0xbe1fa786	-0.15591249
107	0xbe19a138	-0.15002906
108	0xbd20c4c2	-0.039250143
109	0xbd5cdadc	-0.053919658
110	0x3dd87dfe	0.10570906
111	0xbe4db885	-0.2008992
112	0x3da53d4d	0.08068333
113	0x3d832841	0.06404162
114	0xbd5f7b9e	-0.05456125
115	0x3bdeef7e	0.006803452
116	0xbd95a1a0	-0.07306218
117	0xbdc2546f	-0.09488761
118	0xbcc41351	-0.023934992
119	0xbdcab531	-0.09897841
120	0xbdad396d	-0.08458219
121	0x3e0e610b	0.13904206
122	0xbdc840c9	-0.09777982
123	0xbdfd9911	-0.12382711
124	0x3d6c8574	0.05774446
125	0x3d9dad7d	0.07699106
126	0x3e00f21c	0.12592357
127	0x3d7148c1	0.058907274
128	0xbcc42a39	-0.023945915
129	0x3dad68cb	0.08467253
130	0xbdbb680c	-0.09150705
131	0xbd3a7d96	-0.045529924
132	0x3d9faf4f	0.07797109
133	0x3ca56976	0.02019189
134	0xba9b6de2	-0.0011858309
135	0x3d00a041	0.03140283
136	0x3d120754	0.03565152
137	0xbd59b163	-0.053147685
138	0xbcb35e25	-0.021895478
139	0x3db5ace2	0.088708654
140	0xbd295795	-0.04134329
141	0xb9f1b598	-0.000461024
142	0xbda88c90	-0.08229935
143	0xbe23a03f	-0.15979098
144	0x3d360b28	0.044444233
145	0xbcbdadf8	-0.023154244
146	0x3deb7212	0.114963666
147	0xbd9e1206	-0.077182814
148	0x3d07f1c4	0.03318955
149	0xbc58fbc1	-0.013243617
150	0x3dc319fa	0.09526439
151	0x3d74b5e6	0.059743784
152	0xbbe50f6d	-0.0069903643
153	0x3dd271f3	0.1027564
154	0xbb0b45e1	-0.0021251368
155	0x3b85b422	0.0040803114
156	0xbd0a17a7	-0.033713963
157	0xbd8c2d60	-0.06844592
158	0xbdab85b8	-0.08375114
159	0xbd0e697a	-0.03476856
160	0x3a7cbc6f	0.0009641116
161	0x3d34c38f	0.04413181
162	0x3dd2384c	0.10264644
163	0x3db48c58	0.08815831
164	0x3e179b8c	0.1480543
165	0xbd064e44	-0.032789484
166	0x3df72282	0.12067129
167	0xbd894431	-0.067024596
168	0xbd2d0536	-0.042241298
169	0x3cb1827d	0.021668667
170	0x3cfa8035	0.030578712
171	0xbd7cf168	-0.06175366
172	0x3e020b7f	0.12699698
173	0x3dbc8a47	0.09206062
174	0xbd692e5b	-0.056928974
175	0xbe0962c6	-0.13416585
176	0x3c8c3896	0.017116826
177	0xbe0118fb	-0.12607186
178	0xbc36ee1e	-0.01116517
179	0xbd97238c	-0.07379827
180	0xb9b6c2e2	-0.00034858944
181	0x3cf60dc2	0.030035857
182	0x3df893d9	0.12137575
183	0xbcf44e28	-0.029822424
184	0x3de772a6	0.11301164
185	0xbdb067fc	-0.086135834
186	0x3d39459b	0.045232397
187	0x3d96ae1b	0.07357427
188	0x3dee7f80	0.116454124
189	0x3baa68ec	0.005200496
190	0x3dac907a	0.08425994
191	0xbe233a73	-0.15940265
192	0x3e28c02b	0.16479556
193	0xbdbf05d6	-0.09327285
194	0x3cc9b74c	0.024623536
195	0xbd0c6542	-0.034276254
196	0x3d9eaf45	0.07748274
197	0xbdd793cc	-0.10526237
198	0x3de2f2c0	0.11081457
199	0x3d0ab60a	0.033865012
200	0xbda07631	-0.07835043
201	0xbc89688c	-0.016773485
202	0xbca154b3	-0.019693708
203	0xbda9f059	-0.08297796
204	0xbd98affb	-0.074554406
205	0x3e03a034	0.12854081
206	0xbd5c62c8	-0.053805143
207	0xbdbd8b86	-0.092551276
208	0x3d9fb214	0.077976376
209	0x3da84556	0.0821635
210	0xbe35172d	-0.17684622
211	0xbcf5d68d	-0.030009532
212	0x3c2fe054	0.010734636
213	0x3cefb316	0.0292602
214	0xbca45409	-0.020059602
215	0x3e218800	0.15774536
216	0xbd418656	-0.047247253
217	0x3db3dd84	0.08782485
218	0x3d0091de	0.03138911
219	0x3cd148e9	0.025547462
220	0xbdc165ce	-0.09443246
221	0xbd86fa7d	-0.065907456
222	0xbc7db6bd	-0.015485463
223	0x3d9a06c7	0.07520824
224	0xbd66ae74	-0.056318715
225	0x3db9f4eb	0.090799175
226	0x3d398ec9	0.045302186
227	0xbe16d92d	-0.14731283
228	0xbdcc8ac7	-0.09987407
229	0x3dcaa8ec	0.098955005
230	0xbd40d9a1	-0.047082547
231	0x3cc80d38	0.024420366
232	0xbd9fcfd5	-0.07803313
233	0xbdda48b4	-0.10658398
234	0xbd6b7198	-0.05748138
235	0x3d0e8529	0.03479496
236	0x3dc8e69a	0.09809609
237	0x3df5f287	0.12009149
238	0x3d517977	0.05114123
239	0x3e0089cf	0.1255257
240	0xbd45a2d8	-0.048251003
241	0x3dd4de18	0.103939235
242	0xbd5bf366	-0.05369892
243	0x3df6a5fb	0.12043377
244	0x3d8ea862	0.0696571
245	0xbdd085c1	-0.101817615
246	0xbc1cbd29	-0.009566584
247	0xb9bf5b45	-0.0003649836
248	0x3e256723	0.16152625
249	0xbdb12387	-0.086493544
250	0x3d8d1f72	0.06890763
251	0xbdb8fd83	-0.090327285
252	0x3e1b8c98	0.15190351
253	0xbdfef73f	-0.12449502
254	0x3d2075fb	0.039175015
255	0x3d7bf2bc	0.061510786

network.4.bias f4 [32]
0	0xbd99f08d	-0.075165845
1	0x3d119375	0.035541017
2	0xbdf90523	-0.12159183
3	0xbdf2440e	-0.11829387
4	0x3e82327e	0.25429147
5	0x3ce8fae9	0.028439956
6	0x3e1e56be	0.15462777
7	0x3d70aca4	0.058758393
8	0x3e092df4	0.13396436
9	0xbbd55724	-0.006510632
10	0x3e80d29d	0.25160685
11	0xbc9accdb	-0.01889651
12	0x3d9a882a	0.075455025
13	0x3d263966	0.040582083
14	0xbc32f9ba	-0.010923797
15	0xbc546ad9	-0.012964928
16	0x3d3cb224	0.046068326
17	0xbdca2974	-0.09871188
18	0xbbafa6f9	-0.005360481
19	0x3b95eb18	0.0045751445
20	0x3dc0404b	0.09387263
21	0x3d1fe579	0.0390372
22	0xbdbf75c7	-0.09348636
23	0xbd3726df	-0.044714805
24	0x3d9ef291	0.077611096
25	0xbc65abec	-0.01401804
26	0xba6b28cd	-0.00089706184
27	0x3d20097c	0.039071545
28	0xbcd734cc	-0.026270293
29	0x3d9d66e3	0.0768564
30	0xbcfd49da	-0.030919004
31	0xbd041360	-0.03224504

network.6.weight f4 [32]
0	0x3f24513e	0.64186466
1	0x3f17576f	0.5911779
2	0x3f3e7120	0.74391365
3	0x3f41fa70	0.7577276
4	0x3f25779d	0.6463564
5	0x3f3dbab5	0.7411302
6	0x3f10ae52	0.5651599
7	0x3f288640	0.6582985
8	0x3f36d6ed	0.714217
9	0x3f234320	0.637743
10	0x3f26718f	0.65017027
11	0x3f3a8f71	0.72875124
12	0x3f29e150	0.66359425
13	0x3f3bddbe	0.73385227
14	0x3f409b4d	0.7523697
15	0x3f306415	0.68902713
16	0x3f323c4e	0.6962327
17	0x3f3f592c	0.7474544
18	0x3f3f4c15	0.74725467
19	0x3f258405	0.6465457
20	0x3f453e83	0.7704851
21	0x3f24c9e3	0.64370555
22	0x3f26095e	0.64858043
23	0x3f37d176	0.7180399
24	0x3f36fb1a	0.714769
25	0x3f3d864e	0.7403306
26	0x3f26be9f	0.65134615
27	0x3f225f5b	0.6342675
28	0x3f415229	0.7551599
29	0x3f17e17e	0.5932845
30	0x3f3d1085	0.7385333
31	0x3f3dd6bf	0.741558

network.6.bias f4 [32]
0	0xbf003519	-0.5008102
1	0xbf08e752	-0.53477967
2	0xbebd0d49	-0.36924198
3	0xbea59027	-0.32336542
4	0x3ee2fa67	0.44331667
5	0xbe942601	-0.28935245
6	0x3f1d2562	0.61385167
7	0x3ee6b8f7	0.45062992
8	0x3ebf486f	0.3735995
9	0xbf14a87f	-0.58069605
10	0xbf01d95c	-0.5072229
11	0x3ebcf0e3	0.36902532
12	0xbf0485cb	-0.5176665
13	0xbed2a8de	-0.4114446
14	0x3ee20673	0.44145545
15	0x3f0ba9e4	0.5455611
16	0xbeba9c8a	-0.36447555
17	0x3eb663e5	0.35623088
18	0x3ea51bd6	0.322478
19	0xbeecd92c	-0.4625944
20	0xbe8b7b02	-0.27242285
21	0xbee695cf	-0.4503617
22	0xbecf8e8d	-0.40538445
23	0xbed3adad	-0.41343442
24	0xbebaad5e	-0.36460394
25	0x3e9b4321	0.30324653
26	0xbef69102	-0.48157507
27	0x3f01ef92	0.5075618
28	0xbed1e56a	-0.40995342
29	0x3f128138	0.5722842
30	0xbeb59ed9	-0.35472754
31	0x3ebf2801	0.37335208

network.6.running_mean f4 [32]
0	0x3e9af263	0.3026305
1	0x3ea9a8bf	0.33136556
2	0x3e5cd2c2	0.21564773
3	0x3e6b17d4	0.22958308
4	0x3f03f39e	0.51543605
5	0x3e9ca2ad	0.30592862
6	0x3f0433b7	0.5164141
7	0x3ed37126	0.41297263
8	0x3f0c4b20	0.5480213
9	0x3e893fc4	0.26806462
10	0x3ef0e7b4	0.47051775
11	0x3ebf87f9	0.37408426
12	0x3ecd1196	0.4005248
13	0x3ea82060	0.328372
14	0x3ebeedaa	0.37290698
15	0x3ec37ee1	0.38182738
16	0x3eb0e4bf	0.3454952
17	0x3e9f90ad	0.31165066
18	0x3eaa1fb9	0.33227327
19	0x3ea9e3e5	0.33181682
20	0x3eaaff60	0.3339796
21	0x3e9b050f	0.30277297
22	0x3e93c2ee	0.28859657
23	0x3e73c25f	0.23804615
24	0x3e986b96	0.29769582
25	0x3eb3d77e	0.35125345
26	0x3ea4f981	0.32221606
27	0x3ee13c15	0.4399115
28	0x3ea4ef0e	0.32213634
29	0x3f011f96	0.5043882
30	0x3e9c1950	0.30488062
31	0x3ec23e3b	0.37938103

network.6.running_var f4 [32]
0	0x3eb09586	0.34489077
1	0x3e421f5f	0.1895728
2	0x3e80061e	0.25004667
3	0x3e8da524	0.27665055
4	0x3f227c45	0.6347087
5	0x3eb8c55a	0.36088067
6	0x3ead40b9	0.33838442
7	0x3e849338	0.2589357
8	0x3ed8ceea	0.42345363
9	0x3eb195e4	0.3468467
10	0x3ed60654	0.41801703
11	0x3ef7ed08	0.48423028
12	0x3e8a9fef	0.27075145
13	0x3e7d3c13	0.24729948
14	0x3f0183b1	0.5059157
15	0x3f00ac23	0.5026266
16	0x3e80421d	0.2505044
17	0x3e8f0877	0.27936146
18	0x3ee923ad	0.4553503
19	0x3e8ee754	0.27910864
20	0x3e5ed720	0.21761751
21	0x3eaaee96	0.33385152
22	0x3e37c7d9	0.1794733
23	0x3e78b152	0.24286392
24	0x3e808a6a	0.25105602
25	0x3f0bd853	0.5462696
26	0x3e889caf	0.2668204
27	0x3ec5be6f	0.38621852
28	0x3f10a98c	0.5650871
29	0x3ea2d4f2	0.3180309
30	0x3eb6f50c	0.3573383
31	0x3edeb4b4	0.4349724

network.8.weight f4 [2, 32]
0	0x3d1bdf55	0.038054783
1	0xbdbf67eb	-0.09345993
2	0xbe263139	-0.16229714
3	0xbdb528c3	-0.08845665
4	0x3cf45136	0.02982388
5	0xbdcf3969	-0.10118372
6	0x3e377095	0.1791404
7	0x3e5b34e6	0.21406898
8	0x3e81f272	0.25380284
9	0x3d1bd662	0.03804625
10	0x3d261621	0.040548448
11	0x3e1dcb72	0.1540964
12	0xbc15d068	-0.009143926
13	0xbded5aa2	-0.115895525
14	0x3d8dbb1f	0.06920456
15	0x3e41b8eb	0.18918197
16	0xbd335ffa	-0.043792702
17	0x3e23a43f	0.15980624
18	0x3dc5f412	0.09665693
19	0xbe014d8e	-0.12627241
20	0xbd676310	-0.056490958
21	0x3c184ed9	0.0092961425
22	0xbceb6ed4	-0.02873937
23	0xbe189ea3	-0.14904265
24	0xbd891f95	-0.06695477
25	0x3d86cbac	0.06581816
26	0xbd930025	-0.07177762
27	0x3e56a634	0.20961839
28	0x3c8904b8	0.016725883
29	0x3d6745be	0.056462996
30	0xbdd0a9f3	-0.10188665
31	0x3e25304c	0.16131705
32	0x3e66bae5	0.22532232
33	0x3e13574b	0.14388768
34	0xbb86b6d1	-0.004111149
35	0x3da4fc71	0.08055962
36	0xbe715fc1	-0.23571683
37	0x3dca26d3	0.098706864
38	0xbe1b2916	-0.15152392
39	0xbd508db5	-0.050916392
40	0xbd1506b0	-0.03638333
41	0x3e685b88	0.22691166
42	0x3e64f1a4	0.22357804
43	0xbe1ee76e	-0.15517971
44	0x3e8f17fb	0.27947983
45	0x3d7ed43d	0.062214125
46	0xbe059d45	-0.13048275
47	0xbe361fdd	-0.17785592
48	0x3e1eb1c2	0.15497497
49	0xbe1a9df3	-0.15099315
50	0xbdf25cd5	-0.118341126
51	0x3dbd1a2e	0.09233509
52	0x3dd96d31	0.1061653
53	0x3e4b4960	0.19852209
54	0x3e4bffbc	0.19921774
55	0x3d3f0e1f	0.046644326
56	0x3dd6ae0e	0.10482417
57	0xbe190ed7	-0.14947067
58	0x3de34032	0.11096229
59	0xbdd9370c	-0.106062025
60	0x3e11be3a	0.14232722
61	0xbea69723	-0.32537183
62	0x3d4232cc	0.047411725
63	0xbe3b9c02	-0.18321231

network.8.bias f4 [2]
0	0x3eabc7cb	0.33550867
1	0xbe9ac8a6	-0.30231208
