models/pytorch_best_f1_model.pth (torch, 31869 bytes, 6 tensors)

network.0.weight f4 [64, 77]
000000 ae 6c 70 be a1 61 d7 bd 21 64 96 bd f0 a9 c1 bd
       -0.23478958 -0.10516668 -0.07343317 -0.09456241
000010 b6 f3 c1 bd a9 68 06 bd a1 c4 41 be 3d 60 0f 3a
       -0.09470312 -0.032814655 -0.18922664 0.0005469358
000020 c0 ea a9 3d cd cf 06 bd d4 e9 72 3d a8 6c 4a 3d
       0.08296728 -0.032913018 0.059305027 0.04942003
000030 18 1f 10 3c b0 33 5d 3d d9 53 c6 bd 54 90 2e 3c
       0.008796476 0.05400437 -0.096839614 0.010654528
000040 bd 3b 21 bd 69 20 3a 3b 19 7b c8 bd e6 87 69 3d
       -0.03936361 0.0028400666 -0.09789104 0.05701437
000050 7c 97 0a bd 1d ee 2b bb 4b 2f fb bd f8 3c 31 bd
       -0.033835873 -0.0026234456 -0.1226488 -0.043271035
000060 cf fa 68 3d 06 2b 1f bd 55 ee 8c bd 1b 40 f1 bd
       0.056879815 -0.03885939 -0.06881396 -0.11779805
000070 24 18 98 3b a5 45 f4 bd 09 71 36 3d 5e b0 a9 bd
       0.0046415497 -0.11927346 0.044541392 -0.082855925
000080 a3 dc ea 3d 17 1a a6 bc 40 f7 25 bd 35 32 bc 3d
       0.11467864 -0.020276112 -0.040519 0.09189264
000090 ff 61 6f bc 51 d3 90 bd b5 6d aa 3c a9 59 2e be
       -0.014610766 -0.070715554 0.020804266 -0.1702639
0000a0 3d 9c c9 bc f7 ab 2a be 0d da 72 bb 8d 98 db bd
       -0.024610633 -0.16667162 -0.0037056238 -0.10722456
0000b0 65 01 ad bc 81 61 c4 bc d9 6c 69 bd dc 15 75 bd
       -0.021118829 -0.023972275 -0.05698857 -0.0598353
0000c0 e1 68 87 3d 53 6b 3f 3d af e9 e2 3c d4 b1 70 3d
       0.06611801 0.04673321 0.02769932 0.05876334
0000d0 bd a9 c5 3c 9c 8c 20 3d f1 75 74 3a d4 ab a6 bd
       0.02412879 0.039196596 0.0009325436 -0.08138242
0000e0 03 8e 21 be 55 a7 fc b9 a1 bc 38 bd f9 16 e5 bd
       -0.1577683 -0.00048189858 -0.045101766 -0.11186022
0000f0 c8 c0 4a bb 67 f2 11 3d ee 95 ba 3c b1 77 a5 bd
       -0.003093766 0.035631564 0.02277657 -0.0807947
000100 e0 a9 b7 3c c8 9f f9 3c 4c 42 c5 3d c5 70 ee 3d
       0.02241987 0.030471697 0.09631786 0.11642603
000110 88 d1 81 bd c0 72 28 bd 41 8f ed bc 8f cb 43 bd
       -0.06338793 -0.04112506 -0.028998973 -0.04780155
000120 44 4f 56 bc 2e ad 21 3d 71 7b 3d 3c 4a 7f 0d be
       -0.013080422 0.039471798 0.011565075 -0.13818088
000130 ba ae f2 bd 8e 36 cd bb 8f 37 e9 bb 9c 31 63 bd
       -0.11849733 -0.006262607 -0.007117219 -0.055467233
000140 db d2 7e bd 64 2d fd 3c bd cf cb bd fd 94 94 bd
       -0.062212806 0.030905433 -0.09951732 -0.0725498
000150 5c b5 15 be 1a 16 4a 3e b1 e5 d8 3c 15 da 16 be
       -0.14619964 0.19734994 0.026476713 -0.14731629
000160 84 57 e7 bb e5 09 8b 3d 81 bf fe ba e3 0f f9 3d
       -0.007059993 0.067889966 -0.0019435735 0.12161233
000170 31 19 44 be 98 5f 09 be a1 8c 84 3d 85 0a 2c be
       -0.19150235 -0.13415372 0.06472135 -0.16800888
000180 bc 59 eb 3b 2b 30 6b 3c 3d c3 cb 3d 3b 34 4b 3a
       0.007182328 0.014354746 0.09949348 0.00077516184
000190 b7 d2 d4 bc c0 e9 16 bc f3 d9 8c bd fc 98 7e bd
       -0.025979383 -0.009211004 -0.06877508 -0.062157616
0001a0 4d 9a 3f 3d f1 92 9c 3d 5a 6a f1 3d f7 f1 0b bd
       0.046778012 0.07645214 0.11787863 -0.034166303
0001b0 dc 68 04 be 14 43 33 be 8c fa 8c 3d 0a ca 25 be
       -0.12930626 -0.17506057 0.068837255 -0.16190353
0001c0 25 db 9f bc bb 01 d4 bd ed 07 25 3c 26 77 cb 3d
       -0.019513676 -0.103518926 0.01007269 0.09934835
0001d0 5b 21 a0 3d 44 1a 52 be 98 a3 a5 bc 37 89 ca bc
       0.07818862 -0.20517832 -0.02021961 -0.024723632
0001e0 79 7d 0d be 54 d7 9c 3c 02 e4 e8 3d 95 76 19 be
       -0.13817395 0.019145645 0.11371614 -0.14986642
0001f0 17 b1 97 bd 1b 08 fc bd 1c 7e 22 be a8 42 17 be
       -0.07406824 -0.123062335 -0.1586842 -0.14771521
000200 96 e4 ab 3d 57 59 14 3d 16 ef 82 3d 59 2b 98 bd
       0.08393209 0.036218014 0.06393258 -0.07430143
000210 e9 28 b8 bc 1c b2 91 bc 4b 1a c8 ba d1 98 77 3d
       -0.022480445 -0.017785124 -0.0015266625 0.06044847
000220 2e 2d 6a 3d 0f 6e 1a bd aa d9 ba bc 1f 33 a4 bb
       0.057171993 -0.037702616 -0.022808868 -0.005010977
000230 24 65 f7 bd 23 83 a7 3d 4a 3c 1a 3c d1 d0 bc 3d
       -0.12079838 0.08179309 0.009413788 0.09219516
000240 c8 f9 10 bd 9a c1 2b be ed 3a 0f 3d 48 df 27 bc
       -0.03539446 -0.16773072 0.034968305 -0.0102461055
000250 00 05 79 bc c6 75 52 3d 10 61 e3 3c be b9 a4 3c
       -0.015198946 0.05138185 0.027756244 0.0201081
000260 61 d4 7d 3d 81 0b a8 3d f0 1e 6c be df 76 d7 bc
       0.06197012 0.08205319 -0.23058677 -0.0263018
000270 59 9a 68 3d 61 1e a9 3d 0c ae c5 3d 61 9c c2 3d
       0.056787822 0.082577474 0.096523374 0.09502483
000280 72 76 bb 3d c7 d8 9e 3c 12 11 de 3d a5 ff 1c be
       0.09153451 0.019390477 0.108431 -0.15331896
000290 15 91 2f be 6a 96 24 be 36 1b 20 be f3 c6 94 bd
       -0.17145188 -0.16073003 -0.1563538 -0.07264509
0002a0 39 c5 ca 3c 45 f9 c4 3d bb eb 2a bd 20 46 e0 bd
       0.024752246 0.09617857 -0.041728716 -0.10950875
0002b0 81 f5 0c 3e 55 97 ac 3d cd f4 25 3d c9 a2 05 bd
       0.13765527 0.08427302 0.040516663 -0.032625947
0002c0 56 b5 49 bd 66 39 0d be eb 77 1a be a4 e7 af 3d
       -0.0492452 -0.13791427 -0.15084808 0.08589104
0002d0 72 d4 bd bd 3b ba 31 3d 2c 83 19 bd 5f b8 92 3d
       -0.09269036 0.043390494 -0.03747861 0.07164072
0002e0 d7 ed f5 bd da 58 87 3d b2 98 ba bc bb 52 95 3d
       -0.12008255 0.06608744 -0.022777889 0.0729117
0002f0 cd 7e 24 3d a7 c6 33 be 0f 0b 7e bd e6 bb c0 bd
       0.04015999 -0.17556249 -0.062022265 -0.09410839
000300 6c 2d 6a 3c de 1f ab bd 03 11 44 3d 3d 50 d8 3d
       0.014293056 -0.083556876 0.047867786 0.10562179
000310 fb 8c d2 3d f5 50 ff 3c 5d 34 b6 bd a5 9c 94 bc
       0.10280796 0.031166533 -0.08896706 -0.0181411
000320 47 12 22 be 15 c2 b0 3d b7 36 8c bc 79 f4 fd 3b
       -0.15827285 0.08630768 -0.017115934 0.0077500907
000330 62 27 38 3d cd e3 99 3c bd ed 14 3d 2b bb 4f 3c
       0.044959433 0.018785382 0.036359537 0.012678902
000340 b7 3e 85 3d 2d 49 73 bd 7f 75 5a 3d 15 a5 cc bb
       0.065061025 -0.059395958 0.05333471 -0.0062452652
000350 ce cb 41 bd 8d 82 36 3d e1 fc 07 be bd 6a 09 be
       -0.047313504 0.044558097 -0.1328006 -0.13419624
000360 5d d7 54 bd 9e ce d9 3d b9 c2 92 bd cd 23 14 3d
       -0.0519632 0.10635112 -0.07166047 0.036166955
000370 f4 82 5a bd 7b 18 6f bd 46 e7 df 3d 88 a5 ef 3d
       -0.053347543 -0.058372956 0.10932784 0.117014945
000380 e4 7b 5d bd ca 85 29 3e 72 9a b2 3d 5a da 71 3d
       -0.05407323 0.16554943 0.08720864 0.059046127
000390 3a 79 b0 bd be ad ea bb 77 39 fe ba 6d 1f 41 be
       -0.08616872 -0.007161825 -0.0019395788 -0.18859644
0003a0 65 ad 04 be 64 aa 8e 3d 32 c8 81 3d d2 01 b8 bd
       -0.1295677 0.06966093 0.06337012 -0.08984722
0003b0 2a ce c7 3d 1b 22 c2 bb 7f 3c f2 3c 56 7c 0f be
       0.097561195 -0.005924476 0.029569862 -0.14012274
0003c0 32 f5 48 be 87 11 63 be df 83 67 bd da 5d fb 3c
       -0.19624785 -0.22174655 -0.056522246 0.0306844
0003d0 1c ad 12 3d 76 cf a4 bd 76 d9 e1 3c a5 bb 18 3d
       0.03580962 -0.080473825 0.027569514 0.037288327
0003e0 24 e6 b4 bc 25 a3 bd bd 5a 43 99 3d d2 e8 18 bd
       -0.022082396 -0.09259633 0.074835494 -0.03733141
0003f0 40 8f 95 3c e3 ab c9 3d 43 30 8b bd cc 21 d6 bc
       0.018256783 0.09847238 -0.067963146 -0.026139162

network.0.bias f4 [64]
000000 34 b0 ec 3c 50 3f 24 bc 11 fa 9f bd f3 07 67 bd
       0.028892614 -0.0100248605 -0.07811368 -0.056404065
000010 bb ef d9 bd 51 1e 9f 3d 79 7c c7 3c 18 a2 95 bd
       -0.10641428 0.07769454 0.024351345 -0.073063076
000020 8f 58 b1 bd 52 ab b4 bc 1d ab 36 3c 4a b1 ce 3b
       -0.08659469 -0.022054348 0.011149195 0.0063077556
000030 0c 37 df 3c 26 af 06 3d 94 78 a6 bd df 5c e9 bd
       0.027247928 0.03288188 -0.08128467 -0.11394667
000040 05 c2 7f bc 2f 99 ff bd f1 8c 6c 3d 44 ba 46 ba
       -0.015610223 -0.12480389 0.0577516 -0.00075808563
000050 0e 0c d3 bd c6 b8 50 bd 28 11 28 bd 5e 54 29 be
       -0.103050336 -0.050957464 -0.041031986 -0.1653609
000060 6c b9 09 bd 3d 14 60 bd 44 f3 00 3e aa bf 7a be
       -0.033624098 -0.0547068 0.12592798 -0.24487177
000070 db 58 5a bd e3 47 bb bd f0 b8 fe bc 05 1a 1a 3d
       -0.053307395 -0.09144571 -0.031094044 0.03762247
000080 6a 6f 99 3d ec 3c 96 3d 71 51 93 bd 98 94 2f bd
       0.07491954 0.07335839 -0.07193268 -0.04286632
000090 70 fa e1 3c 35 3d e7 bc b3 04 cb 3d 28 f2 aa 3d
       0.027585238 -0.028227428 0.09913006 0.08346969
0000a0 a9 04 9e bd 23 93 2c bd f2 9a 28 3c fb 28 15 bc
       -0.077157326 -0.042132508 0.010290848 -0.009104009
0000b0 2d 3c 0f bc 65 b1 a0 3d 74 16 c3 bb 48 42 66 bd
       -0.008742374 0.07846335 -0.0059536044 -0.056215554
0000c0 e0 6e 94 bd 66 8c da 3c 8f 55 d8 bc ba 5c 90 bd
       -0.0724771 0.026678275 -0.026407985 -0.07048936
0000d0 d7 ba b1 bd 2a 5f ab 3d 2b 38 5c 3d 75 c5 79 3d
       -0.08678215 0.083677605 0.053764503 0.060979325
0000e0 d2 cf fd bc 33 13 d5 bd 6d a5 2c bd 15 53 96 3c
       -0.030982886 -0.104040526 -0.04214995 0.018350163
0000f0 74 84 09 be b0 97 37 bd e3 fc 25 3d a2 25 08 be
       -0.13429433 -0.044822395 0.040524375 -0.13295606

network.3.weight f4 [32, 64]
000000 47 63 20 3e 93 e0 41 ba 75 a2 b9 3d 5c 4c ca 3a
       0.15662871 -0.000739583 0.09064189 0.0015434134
000010 7b c2 39 bd 97 69 8e 3d 6f 12 75 3c c2 37 9d bd
       -0.045351487 0.069537334 0.014958008 -0.076766506
000020 e7 99 25 3c c8 ec f2 bc 31 76 e2 3b 1e e4 17 3c
       0.010107494 -0.029653922 0.006911062 0.009270696
000030 0a 65 d8 bc bd 4c 3a bc 72 57 02 3e f1 dd 9e bc
       -0.026415367 -0.011370835 0.1272867 -0.01939294
000040 77 e0 a6 3d 2f 60 43 3e 45 42 a4 3c f7 a1 d4 bc
       0.08148282 0.1907966 0.020051131 -0.025956137
000050 5d 80 2f 3e 4d fe 46 bd 5f 33 b3 3d 25 9e 26 3e
       0.1713881 -0.048582364 0.08750033 0.16271265
000060 b5 6f ee 3d 8c 3e d0 3d 74 c7 23 bd d8 54 39 3d
       0.116424 0.1016818 -0.039985135 0.04524693
000070 32 bb ec 3d 34 0e 1d 3e ab 5f 95 3d 74 f3 9a 3d
       0.11559142 0.1533745 0.07293638 0.07565966
000080 e4 4c 46 bc 08 58 f6 3d d2 ab 09 bd 1b 27 17 3e
       -0.012103293 0.120285094 -0.033611126 0.14761011
000090 a3 23 95 bd 8b c7 fa bc 8f 60 af 3d 1e 31 22 3d
       -0.07282188 -0.030612728 0.08563339 0.039597623
0000a0 df ff 58 3d 1a 8e 50 bd 89 fe cb 3d bb f2 01 3e
       0.052978393 -0.05091677 0.09960658 0.1269025
0000b0 54 50 e4 bb 95 82 d0 3c b1 8b 00 3e a9 11 0e 3e
       -0.0069675837 0.025452891 0.12553288 0.13873924
0000c0 c7 0d cb 3d 64 d4 fd 39 ee c3 1e 3e 2c a4 0b 3c
       0.09914737 0.00048414164 0.15504429 0.008523028
0000d0 90 66 5a 3d af 95 0f 3e 79 d8 38 3e 9d 10 e1 3c
       0.053320467 0.14021944 0.18051328 0.027473742
0000e0 eb 9d 13 bd 91 44 5c 3c de a0 f1 3d b9 df 54 3d
       -0.036039274 0.013444082 0.11798261 0.05197117
0000f0 6f 78 50 bd 68 6d 89 3c 5a e6 48 bc 8f ed 94 bd
       -0.050896104 0.016775802 -0.012261951 -0.07271873
000100 c9 42 11 3e 5e df 68 3d 31 77 7f 3d 46 f6 b2 bd
       0.14185633 0.056853645 0.06236953 -0.08738379
000110 32 13 b0 bd 24 24 5a 3c f9 aa c3 3c 74 91 4d 3e
       -0.08597411 0.013314281 0.023885237 0.20075017
000120 24 91 de bd 51 8e 9f 3d 82 ea 23 3e c0 74 df 3d
       -0.10867527 0.077908166 0.16007426 0.1091094
000130 4b 98 bd 3d 70 2a ee bb dc 91 8d 3d 6e ca 65 bc
       0.09257563 -0.0072682425 0.06912586 -0.014025314
000140 39 b0 cd 3d 7f f3 54 3d fe 3f 6a bd 22 da 05 3c
       0.100433774 0.05199003 -0.057189934 0.008169683
000150 00 e9 10 3e 16 ea 43 3c 36 a4 a4 3d 6d 89 fd 3d
       0.14151382 0.011957666 0.08039133 0.123797275
000160 5f 7d 23 bd 52 09 8d bd e8 7a 14 bc 54 a8 00 3e
       -0.039914485 -0.06886543 -0.009062506 0.12564212
000170 31 2e d5 3d fb 96 90 3c f9 08 79 ba 65 1e aa 3d
       0.10409201 0.017650118 -0.0009499933 0.083065785
000180 bd 51 97 3d 91 61 87 3d 38 46 0d 3c 48 8c 22 3e
       0.07388637 0.06610406 0.0086226985 0.15873826
000190 c5 31 04 3d 39 3d 14 3e 0d 06 d8 3d 59 3f b6 3d
       0.032274026 0.1447648 0.10548029 0.08898801
0001a0 18 df e4 3b 4c a8 82 3d dd 49 23 3e 5b 08 f2 3c
       0.0069846027 0.06379756 0.15946145 0.029545
0001b0 2a 4b 50 3d cb 32 ae 3d 2c a9 16 bd 00 c7 eb 3d
       0.050852932 0.08505782 -0.03678243 0.115125656
0001c0 cc 61 a3 3d 32 4a a0 bd c5 87 1a bd 07 b6 cf bd
       0.07977638 -0.07826652 -0.037727136 -0.10142141
0001d0 fd eb bd 3d c0 01 e4 3d d2 33 6c 3b 7d df ef 3d
       0.09273527 0.11133146 0.003604163 0.11712549
0001e0 31 67 11 bd 84 c7 1d 3e 9d 9d 68 bd d0 a6 01 3d
       -0.0354988 0.1540814 -0.056790937 0.031653225
0001f0 ab e8 95 bd 73 82 9c 3d 09 1e ae 3d 64 d2 0b be
       -0.073197685 0.07642069 0.085018225 -0.13654476
000200 8a ed 8b bd 00 72 04 bd cd c6 94 bc 27 8b d0 3d
       -0.06832416 -0.03233528 -0.018161202 0.10182791
000210 02 d3 2e bd 1d 20 26 bb 8e 67 54 bc b2 ec 58 3d
       -0.0426817 -0.002534873 -0.0129641425 0.052960105
000220 e0 5d d1 bd 4b 70 fc 3d 21 1c b1 3b cc 9e 1b 3e
       -0.10222983 0.12326106 0.0054049646 0.15197295
000230 ea 82 39 3e 93 9f b0 bd 14 25 2a 3b 08 5c 74 3d
       0.18116346 -0.08624186 0.0025962042 0.05965808
000240 70 35 5c 3c 67 3e a9 3d 00 86 24 bd 30 d8 81 3c
       0.013440475 0.082638554 -0.040166855 0.015850157
000250 4d 81 20 3e 9d 2a a8 bd c4 54 a2 3d 4d 99 25 3e
       0.15674324 -0.08211253 0.07926324 0.16171761
000260 9b fd bf bd 45 41 25 3d 5f f4 6c 3d 9a 96 dc 3d
       -0.09374543 0.04034545 0.057850238 0.107709125
000270 3e 27 1f 3e 2b 10 8d 3d 89 56 44 3d 99 b4 88 3d
       0.15542313 0.068878494 0.04793409 0.06675071
000280 60 ba 97 3c c6 f9 38 3c 12 3a 33 3e 7f f1 98 3d
       0.018521488 0.011290019 0.17502621 0.07467937
000290 47 77 07 3e 8b 83 83 3b f0 a7 f1 bc fb f0 cb 3d
       0.13229094 0.004013484 -0.029499024 0.09958073
0002a0 63 29 27 3d 95 83 22 3e d7 77 07 bd b7 5d e8 3d
       0.040810954 0.15870507 -0.033073273 0.11346
0002b0 98 08 1c 3e d8 77 63 3c 29 0c 57 bc 2a 38 05 3e
       0.15237653 0.013883553 -0.013125458 0.13009706
0002c0 32 70 90 bd 72 de 14 3e 80 ef 69 39 26 61 0b be
       -0.070526496 0.14537981 0.00022309832 -0.13611278
0002d0 d4 de f4 3d 15 f1 09 3e 61 c2 20 3d 57 9f 97 3d
       0.119565636 0.13470872 0.039247874 0.074034385
0002e0 b8 4a bb 3d 74 dc c9 3d eb af 47 3d 3e b1 1e 3e
       0.09145111 0.09856501 0.048751753 0.154973
0002f0 a0 e2 90 3d 7c 35 d0 3d f0 0c 46 3c 64 6e d4 bd
       0.07074475 0.10166451 0.0120880455 -0.10372618
000300 87 a8 27 be 42 04 b3 3c 39 10 80 3d 25 ec e6 bd
       -0.16372882 0.021852616 0.06253094 -0.1127551
000310 4f 22 4a bd 72 41 55 3e 9f 77 81 bd 6b 27 66 be
       -0.049349125 0.20825747 -0.06321644 -0.22475974
000320 0d 19 ce 3d ba 7b 1b be 97 7f 3c bc ec aa e5 bd
       0.10063372 -0.15183917 -0.011505029 -0.112142414
000330 27 14 49 bd 03 b9 36 3e 79 a5 1b bd 0c da 9c 3d
       -0.049091484 0.17844014 -0.037999604 0.07658777
000340 99 ff a5 3d 7a 76 e9 bd cf 89 ef bd 84 41 9d bc
       0.08105392 -0.11399551 -0.11696207 -0.01919628
000350 a8 32 be bd f6 91 b2 3d 85 5f 01 3c be 28 6c bd
       -0.09287006 0.08719246 0.007896309 -0.057656042
000360 5d e9 0e be ca 8b c0 b9 a6 cf 22 3c c8 47 c3 bd
       -0.13956209 -0.00036725245 0.009937203 -0.095351756
000370 b0 5d 3b bd 3b b9 e1 bb 20 f0 ec bc b0 34 2f bd
       -0.045743644 -0.0068885363 -0.028923094 -0.042774856
000380 d4 5d c0 3d 6e 3b 27 bd 1c 6a f3 bd df 32 0e 3c
       0.09392896 -0.04082816 -0.11885473 0.008679121
000390 a2 d7 3d bd 18 f2 85 bd 66 7b 32 be e1 77 8a be
       -0.04634822 -0.06540316 -0.17429885 -0.27044585
0003a0 13 c8 7e 3b 85 26 42 bd 0b 42 64 bc 27 09 c6 bd
       0.0038876578 -0.047400016 -0.0139317615 -0.096697144
0003b0 91 b6 d3 bd f2 5f 46 3c f1 24 5f be c1 6b 8a 3d
       -0.10337556 0.012107836 -0.21791436 0.06758834
0003c0 9f 63 05 3d 2f 75 8a bd 04 af a5 bd e6 a2 6a 3e
       0.03256571 -0.06760632 -0.08090022 0.22913703
0003d0 6c 7b 16 bc aa 62 59 be 00 da 5b be be d4 22 be
       -0.0091846995 -0.21229044 -0.21469879 -0.15901467
0003e0 5f b4 34 bd 1d 48 20 be 94 9b e0 bd a1 a0 10 be
       -0.044117328 -0.15652509 -0.10967174 -0.14123775
0003f0 79 61 77 3d a3 bf ea bd 9a 31 52 bd 40 5e 99 3d
       0.06039569 -0.11462333 -0.051316835 0.0748868

network.3.bias f4 [32]
000000 42 2b 8f bd 11 2d 58 3c c7 04 17 3d 6c fe 30 3e
       -0.06990673 0.013194338 0.03686979 0.17284554
000010 19 95 4a 3d 7a 19 dc 3d 5d ac 9c 3d f0 9b f2 3c
       0.049458597 0.10747047 0.07650063 0.029615372
000020 ea d7 d4 3d 9e 3b 6e 3e 1e 4f e5 3d 55 ac 4e 3e
       0.10392745 0.2326493 0.11196731 0.20182927
000030 76 46 16 bb 11 d7 d2 3d 8d 74 a2 bd 04 5e 44 bd
       -0.0022930182 0.10294927 -0.079323865 -0.047941223
000040 2b e0 da 3d d3 05 63 3d 2c e2 d9 3d 0c af 01 3e
       0.10687288 0.055425476 0.10638842 0.12664431
000050 5f c4 ab 3d f5 62 64 3d 1e dd 1c 3e 0b 1f c9 3b
       0.08387064 0.055758435 0.15318725 0.006137734
000060 3d e6 a0 3c 12 1f aa 3c 95 6e 63 3e dc 4c 06 bd
       0.019641036 0.020766769 0.22210152 -0.032788143
000070 40 1b 06 3e 48 a3 4d 3e 26 a4 28 3d b1 27 54 bd
       0.13096333 0.20081818 0.04117217 -0.051795665

network.6.weight f4 [2, 32]
000000 f9 73 05 3e d7 7b 86 3d 24 d8 30 3e 26 85 55 be
       0.13032521 0.06566589 0.17269951 -0.20851573
000010 76 62 70 3e 15 86 08 3e e4 38 fd bd 91 0e 69 3e
       0.2347506 0.13332398 -0.12364367 0.22759463
000020 16 eb 1b be b1 ac 86 be 03 8b 74 be a0 63 96 bd
       -0.15226397 -0.26303628 -0.23881154 -0.07343221
000030 a0 ce 5e be 98 87 41 3e dd 8e 7a 3d 63 28 51 3e
       -0.21758509 0.18899381 0.0611714 0.20425563
000040 43 79 59 3e 6b b9 49 be 95 2f 54 39 80 7a 83 be
       0.21237664 -0.19699638 0.00020235621 -0.25679398
000050 e5 15 21 3c 7c eb c5 bd 81 4f 72 bd bd 9e b7 3c
       0.00983188 -0.09664056 -0.059157852 0.02241456
000060 6d 8c 2c 3e 62 df ea 3d 95 aa 6f be 33 42 5c 3e
       0.16850443 0.11468388 -0.23404916 0.21509628
000070 b7 ee 30 3e 2c 64 8a be 27 85 e1 bb 21 67 34 3e
       0.17278562 -0.2702955 -0.006882328 0.17617466
000080 76 c9 16 be e2 40 57 be 6e 8c a9 bd 57 7b a3 3e
       -0.14725289 -0.21020845 -0.08278738 0.31930038
000090 27 03 f9 3a 5c 8c 1d be aa ab da 3d b9 62 f5 bd
       0.0018998132 -0.15385574 0.106772736 -0.119817205
0000a0 b6 30 59 3d a1 6b 0d 3e 25 39 9e bc 57 27 29 3e
       0.05302497 0.13810588 -0.019314358 0.16518913
0000b0 b3 7b 89 bd a3 06 02 be 1b 37 62 be b6 0f e6 39
       -0.06713047 -0.12697844 -0.22091334 0.00043880724
0000c0 a8 dc cf 3b 6d eb 97 3e 2b 14 34 be 8b 79 96 3e
       0.006343443 0.29671803 -0.17585818 0.29389605
0000d0 de c9 bb 3c 05 02 69 be db 71 7a 3e ac 25 0f be
       0.022923406 -0.22754677 0.24457495 -0.13979214
0000e0 9f e4 5f bd 4e 33 f1 bd 8a 3a 76 3d 27 cc 0b 3d
       -0.05466139 -0.11777364 0.06011442 0.03413024
0000f0 d7 49 1c bd 92 d4 85 3e e3 1e 5a be ad d8 08 bd
       -0.038156357 0.2613874 -0.21300845 -0.033409763

network.6.bias f4 [2]
000000 40 c7 22 3e 73 b8 9f 3c
       0.1589632 0.019497132
